orig x_train shape: (49999, 32, 32, 3)
Model: "sequential"
_________________________________________________________________
 Layer (type)                Output Shape              Param #   
=================================================================
 conv2d (Conv2D)             (None, 32, 32, 16)        448       
                                                                 
 conv2d_1 (Conv2D)           (None, 32, 32, 16)        2320      
                                                                 
 max_pooling2d (MaxPooling2  (None, 16, 16, 16)        0         
 D)                                                              
                                                                 
 conv2d_2 (Conv2D)           (None, 16, 16, 32)        4640      
                                                                 
 conv2d_3 (Conv2D)           (None, 16, 16, 32)        9248      
                                                                 
 max_pooling2d_1 (MaxPoolin  (None, 8, 8, 32)          0         
 g2D)                                                            
                                                                 
 conv2d_4 (Conv2D)           (None, 8, 8, 32)          9248      
                                                                 
 conv2d_5 (Conv2D)           (None, 8, 8, 32)          9248      
                                                                 
 max_pooling2d_2 (MaxPoolin  (None, 4, 4, 32)          0         
 g2D)                                                            
                                                                 
 dropout (Dropout)           (None, 4, 4, 32)          0         
                                                                 
 flatten (Flatten)           (None, 512)               0         
                                                                 
 dense (Dense)               (None, 10)                5130      
                                                                 
=================================================================
Total params: 40282 (157.35 KB)
Trainable params: 40282 (157.35 KB)
Non-trainable params: 0 (0.00 Byte)
_________________________________________________________________
Epoch 1/20
  1/352 [..............................] - ETA: 10:52 - loss: 2.3428 - accuracy
…
