orig x_train shape: (19999, 32, 32, 3)
Model: "sequential"
_________________________________________________________________
 Layer (type)                Output Shape              Param #   
=================================================================
 conv2d (Conv2D)             (None, 32, 32, 8)         224       
                                                                 
 conv2d_1 (Conv2D)           (None, 16, 16, 8)         584       
                                                                 
 conv2d_2 (Conv2D)           (None, 16, 16, 16)        1168      
                                                                 
 conv2d_3 (Conv2D)           (None, 8, 8, 16)          2320      
                                                                 
 conv2d_4 (Conv2D)           (None, 8, 8, 32)          4640      
                                                                 
 conv2d_5 (Conv2D)           (None, 4, 4, 32)          9248      
                                                                 
 dropout (Dropout)           (None, 4, 4, 32)          0         
                                                                 
 flatten (Flatten)           (None, 512)               0         
                                                                 
 dense (Dense)               (None, 10)                5130      
                                                                 
=================================================================
Total params: 23314 (91.07 KB)
Trainable params: 23314 (91.07 KB)
Non-trainable params: 0 (0.00 Byte)
_________________________________________________________________
Epoch 1/20
  1/141 [..............................] - ETA: 1:48 - loss: 2.3332 - accuracy: 0
…
