orig x_train shape: (49999, 32, 32, 3)
Model: "sequential"
_________________________________________________________________
 Layer (type)                Output Shape              Param #   
=================================================================
 conv2d (Conv2D)             (None, 32, 32, 16)        448       
                                                                 
 conv2d_1 (Conv2D)           (None, 16, 16, 16)        2320      
                                                                 
 conv2d_2 (Conv2D)           (None, 16, 16, 32)        4640      
                                                                 
 conv2d_3 (Conv2D)           (None, 8, 8, 32)          9248      
                                                                 
 dropout (Dropout)           (None, 8, 8, 32)          0         
                                                                 
 flatten (Flatten)           (None, 2048)              0         
                                                                 
 dense (Dense)               (None, 1024)              2098176   
                                                                 
 dropout_1 (Dropout)         (None, 1024)              0         
                                                                 
 dense_1 (Dense)             (None, 10)                10250     
                                                                 
=================================================================
Total params: 2125082 (8.11 MB)
Trainable params: 2125082 (8.11 MB)
Non-trainable params: 0 (0.00 Byte)
_________________________________________________________________
Epoch 1/20
  1/352 [..............................] - ETA: 10:51 - loss: 6.9763 - accuracy:
…
