orig x_train shape: (19999, 32, 32, 3)
Model: "sequential"
_________________________________________________________________
 Layer (type)                Output Shape              Param #   
=================================================================
 conv2d (Conv2D)             (None, 32, 32, 16)        448       
                                                                 
 conv2d_1 (Conv2D)           (None, 16, 16, 16)        2320      
                                                                 
 conv2d_2 (Conv2D)           (None, 16, 16, 32)        4640      
                                                                 
 conv2d_3 (Conv2D)           (None, 8, 8, 32)          9248      
                                                                 
 dropout (Dropout)           (None, 8, 8, 32)          0         
                                                                 
 flatten (Flatten)           (None, 2048)              0         
                                                                 
 dense (Dense)               (None, 10)                20490     
                                                                 
=================================================================
Total params: 37146 (145.10 KB)
Trainable params: 37146 (145.10 KB)
Non-trainable params: 0 (0.00 Byte)
_________________________________________________________________
Epoch 1/20
  1/141 [..............................] - ETA: 3:41 - loss: 2.3363 - accuracy: 
…
